…
isc/dl001/', sample_duration=8, sample_size=112, scale_in_test=1.0, scale_step=0.84089641525, scales=[1.0, 0.84089641525, 0.7071067811803005, 0.5946035574934808, 0.4999999999911653], std=[38.7568578, 37.88248729, 40.02898126], std_norm=False, store_name='model_scra_resnetl-10', test=False, test_subset='test', train_crop='random', train_validate=False, video_path='/misc/dl001/dataset/NVIDIA/nvgesture_arch', weight_decay=0.001, weighted=False, wide_resnet_k=2)
[INFO]: Converting the pretrained model to Depth init model
[INFO]: Done. Flow model ready.
DataParallel(
  (module): ResNetL(
    (conv1): Conv3d(1, 16, kernel_size=(7, 7, 7), stride=(1, 2, 2), padding=(3, 3, 3), bias=False)
    (bn1): BatchNorm3d(16, eps=1e-05, momentum=0.1, affine=True, track_running_stats=True)
    (relu): ReLU(inplace)
    (maxpool): MaxPool3d(kernel_size=(3, 3, 3), stride=2, padding=1, dilation=1, ceil_mode=False)
    (layer1): Sequential(
      (0): BasicBlock(
        (conv1): Conv3d(16, 16, kernel_size=(3, 3, 3), stride=(1, 1, 1), padding=(1, 1, 1), bias=False)
        (bn1): BatchNorm3d(16, eps=1e-05, momentum=0.1, affine=True, track_running_stats=True)
        (relu): ReLU(inplace)
        (conv2): Conv3d(16, 16, kernel_size=(3, 3, 3), stride=(1, 1, 1), padding=(1, 1, 1), bias=False)
        (bn2): BatchNorm3d(16, eps=1e-05, momentum=0.1, affine=True, track_running_stats=True)
      )
    )
    (layer2): Sequential(
      (0): BasicBlock(
        (conv1): Conv3d(16, 32, kernel_size=(3, 3, 3), stride=(2, 2, 2), padding=(1, 1, 1), bias=False)
        (bn1): BatchNorm3d(32, eps=1e-05, momentum=0.1, affine=True, track_running_stats=True)
        (relu): ReLU(inplace)
        (conv2): Conv3d(32, 32, kernel_size=(3, 3, 3), stride=(1, 1, 1), padding=(1, 1, 1), bias=False)
        (bn2): BatchNorm3d(32, eps=1e-05, momentum=0.1, affine=True, track_running_stats=True)
      )
    )
    (layer3): Sequential(
      (0): BasicBlock(
        (conv1): Conv3d(32, 64, kernel_size=(3, 3, 3), stride=(2, 2, 2), padding=(1, 1, 1), bias=False)
        (bn1): BatchNorm3d(64, eps=1e-05, momentum=0.1, affine=True, track_running_stats=True)
        (relu): ReLU(inplace)
        (conv2): Conv3d(64, 64, kernel_size=(3, 3, 3), stride=(1, 1, 1), padding=(1, 1, 1), bias=False)
        (bn2): BatchNorm3d(64, eps=1e-05, momentum=0.1, affine=True, track_running_stats=True)
      )
    )
    (layer4): Sequential(
      (0): BasicBlock(
        (conv1): Conv3d(64, 128, kernel_size=(3, 3, 3), stride=(2, 2, 2), padding=(1, 1, 1), bias=False)
        (bn1): BatchNorm3d(128, eps=1e-05, momentum=0.1, affine=True, track_running_stats=True)
        (relu): ReLU(inplace)
        (conv2): Conv3d(128, 128, kernel_size=(3, 3, 3), stride=(1, 1, 1), padding=(1, 1, 1), bias=False)
        (bn2): BatchNorm3d(128, eps=1e-05, momentum=0.1, affine=True, track_running_stats=True)
      )
    )
    (avgpool): AvgPool3d(kernel_size=(1, 4, 4), stride=1, padding=0)
    (fc): Linear(in_features=128, out_features=2, bias=True)
  )
)
Total number of trainable parameters:  891474
[INFO]: NV Dataset - training is loading...
dataset loading [0/2100]
dataset loading [1000/2100]
dataset loading [2000/2100]
[INFO]: NV Dataset - validation is loading...
dataset loading [0/964]
run
train at epoch 1
Epoch: [1][0/263]	 lr: 0.01000	Time 2.581 (2.581)	Data 2.551 (2.551)	Loss 0.8328 (0.8328)	Acc 0.500 (0.500)	Precision 0.250(0.250)	Recall 0.500(0.500)
…
